models/global_model.pt (torch, 2703 bytes, 3 tensors)

model.0.weight f4 [8, 4]
00000000: d490 edbd e6e2 8ebe 04fe 52be 1483 9bbe
00000010: 37fb b9cc a77a 88cd df3b d5cb 9567 e2ce
00000020: ceeb 06cd dd04 c6cd 10b1 1acc 153f 24cf
00000030: 76ec 0b3e 381e 843d 6253 65be c8d4 7fbe
00000040: 8e47 33be 0fc8 8fbe d8c6 6abe 0ca3 fbbd
00000050: 8846 febf fed4 bcc0 9483 11bf a7ec 16c2
00000060: dacb 71c0 8a0f 3ec1 b276 9fbf b4e6 9bc2
00000070: 9d1b 88cc 1c2a 44cd 5098 b4cb 8797 a0ce
-0.115998894 -0.27907485 -0.20604712 -0.30373442 -9.750777e+07 -2.8621744e+08 -2.794899e+07 -1.8992196e+09
-1.4147504e+08 -4.1527594e+08 -4.055149e+07 -2.7555976e+09 0.13664421 0.06451076 -0.2239509 -0.24983513
-0.17507765 -0.2808232 -0.22927415 -0.12286958 -1.9865274 -5.901 -0.568414 -37.731106
-3.778067 -11.878794 -1.2458098 -77.95059 -7.135972e+07 -2.0569338e+08 -2.3670944e+07 -1.3471425e+09

model.0.bias f4 [8]
00000000: 2047 b33c 3ca3 80ca 45a4 baca a203 a4be
00000010: e0d2 06bc c5ff c4be 00ba f8bd 6363 2dca
0.021884501 -4.215198e+06 -6.1158745e+06 -0.32034022 -0.008228987 -0.38476387 -0.12144852 -2.8407928e+06

model.2.weight f4 [1, 8]
00000000: a0eb 64bc fbac a14e 12fe f34e 8608 2dbd
00000010: 2260 b33d d092 4dc2 d28f cc42 7c32 25ce
-0.013972193 1.3562341e+09 2.0467571e+09 -0.042244457 0.0875857 -51.39337 102.2809 -6.928873e+08
